=================FLAGS==================
lr: 0.1
batch_size: 128
test_batch_size: 256
resume: False
log: logs/log-resnet32,resnet32_rp,rp_cifar100_1._1_11201910.log
arch: resnet32,resnet32_rp,rp_cifar100
algo: resnet32,resnet32_rp,rp_cifar100_1._1_11201910
kl_w: 1.0
parallel: 1
========================================
==> Preparing data..
==> Building model..
----------------------------------------------------------------
        Layer (type)               Output Shape         Param #
================================================================
            Conv2d-1           [-1, 16, 32, 32]             432
       BatchNorm2d-2           [-1, 16, 32, 32]              32
              ReLU-3           [-1, 16, 32, 32]               0
            Conv2d-4           [-1, 16, 32, 32]           2,304
       BatchNorm2d-5           [-1, 16, 32, 32]              32
              ReLU-6           [-1, 16, 32, 32]               0
            Conv2d-7           [-1, 16, 32, 32]           2,304
       BatchNorm2d-8           [-1, 16, 32, 32]              32
              ReLU-9           [-1, 16, 32, 32]               0
       BasicBlock-10           [-1, 16, 32, 32]               0
           Conv2d-11           [-1, 16, 32, 32]           2,304
      BatchNorm2d-12           [-1, 16, 32, 32]              32
             ReLU-13           [-1, 16, 32, 32]               0
           Conv2d-14           [-1, 16, 32, 32]           2,304
      BatchNorm2d-15           [-1, 16, 32, 32]              32
             ReLU-16           [-1, 16, 32, 32]               0
       BasicBlock-17           [-1, 16, 32, 32]               0
           Conv2d-18           [-1, 16, 32, 32]           2,304
      BatchNorm2d-19           [-1, 16, 32, 32]              32
             ReLU-20           [-1, 16, 32, 32]               0
           Conv2d-21           [-1, 16, 32, 32]           2,304
      BatchNorm2d-22           [-1, 16, 32, 32]              32
             ReLU-23           [-1, 16, 32, 32]               0
       BasicBlock-24           [-1, 16, 32, 32]               0
           Conv2d-25           [-1, 16, 32, 32]           2,304
      BatchNorm2d-26           [-1, 16, 32, 32]              32
             ReLU-27           [-1, 16, 32, 32]               0
           Conv2d-28           [-1, 16, 32, 32]           2,304
      BatchNorm2d-29           [-1, 16, 32, 32]              32
             ReLU-30           [-1, 16, 32, 32]               0
       BasicBlock-31           [-1, 16, 32, 32]               0
           Conv2d-32           [-1, 16, 32, 32]           2,304
      BatchNorm2d-33           [-1, 16, 32, 32]              32
             ReLU-34           [-1, 16, 32, 32]               0
           Conv2d-35           [-1, 16, 32, 32]           2,304
      BatchNorm2d-36           [-1, 16, 32, 32]              32
             ReLU-37           [-1, 16, 32, 32]               0
       BasicBlock-38           [-1, 16, 32, 32]               0
           Conv2d-39           [-1, 32, 16, 16]           4,608
      BatchNorm2d-40           [-1, 32, 16, 16]              64
             ReLU-41           [-1, 32, 16, 16]               0
           Conv2d-42           [-1, 32, 16, 16]           9,216
      BatchNorm2d-43           [-1, 32, 16, 16]              64
           Conv2d-44           [-1, 32, 16, 16]             512
      BatchNorm2d-45           [-1, 32, 16, 16]              64
             ReLU-46           [-1, 32, 16, 16]               0
       BasicBlock-47           [-1, 32, 16, 16]               0
           Conv2d-48           [-1, 32, 16, 16]           9,216
      BatchNorm2d-49           [-1, 32, 16, 16]              64
             ReLU-50           [-1, 32, 16, 16]               0
           Conv2d-51           [-1, 32, 16, 16]           9,216
      BatchNorm2d-52           [-1, 32, 16, 16]              64
             ReLU-53           [-1, 32, 16, 16]               0
       BasicBlock-54           [-1, 32, 16, 16]               0
           Conv2d-55           [-1, 32, 16, 16]           9,216
      BatchNorm2d-56           [-1, 32, 16, 16]              64
             ReLU-57           [-1, 32, 16, 16]               0
           Conv2d-58           [-1, 32, 16, 16]           9,216
      BatchNorm2d-59           [-1, 32, 16, 16]              64
             ReLU-60           [-1, 32, 16, 16]               0
       BasicBlock-61           [-1, 32, 16, 16]               0
           Conv2d-62           [-1, 32, 16, 16]           9,216
      BatchNorm2d-63           [-1, 32, 16, 16]              64
             ReLU-64           [-1, 32, 16, 16]               0
           Conv2d-65           [-1, 32, 16, 16]           9,216
      BatchNorm2d-66           [-1, 32, 16, 16]              64
             ReLU-67           [-1, 32, 16, 16]               0
       BasicBlock-68           [-1, 32, 16, 16]               0
           Conv2d-69           [-1, 32, 16, 16]           9,216
      BatchNorm2d-70           [-1, 32, 16, 16]              64
             ReLU-71           [-1, 32, 16, 16]               0
           Conv2d-72           [-1, 32, 16, 16]           9,216
      BatchNorm2d-73           [-1, 32, 16, 16]              64
             ReLU-74           [-1, 32, 16, 16]               0
       BasicBlock-75           [-1, 32, 16, 16]               0
           Conv2d-76             [-1, 64, 8, 8]          18,432
      BatchNorm2d-77             [-1, 64, 8, 8]             128
             ReLU-78             [-1, 64, 8, 8]               0
           Conv2d-79             [-1, 64, 8, 8]          36,864
      BatchNorm2d-80             [-1, 64, 8, 8]             128
           Conv2d-81             [-1, 64, 8, 8]           2,048
      BatchNorm2d-82             [-1, 64, 8, 8]             128
             ReLU-83             [-1, 64, 8, 8]               0
       BasicBlock-84             [-1, 64, 8, 8]               0
           Conv2d-85             [-1, 64, 8, 8]          36,864
      BatchNorm2d-86             [-1, 64, 8, 8]             128
             ReLU-87             [-1, 64, 8, 8]               0
           Conv2d-88             [-1, 64, 8, 8]          36,864
      BatchNorm2d-89             [-1, 64, 8, 8]             128
             ReLU-90             [-1, 64, 8, 8]               0
       BasicBlock-91             [-1, 64, 8, 8]               0
           Conv2d-92             [-1, 64, 8, 8]          36,864
      BatchNorm2d-93             [-1, 64, 8, 8]             128
             ReLU-94             [-1, 64, 8, 8]               0
           Conv2d-95             [-1, 64, 8, 8]          36,864
      BatchNorm2d-96             [-1, 64, 8, 8]             128
             ReLU-97             [-1, 64, 8, 8]               0
       BasicBlock-98             [-1, 64, 8, 8]               0
           Conv2d-99             [-1, 64, 8, 8]          36,864
     BatchNorm2d-100             [-1, 64, 8, 8]             128
            ReLU-101             [-1, 64, 8, 8]               0
          Conv2d-102             [-1, 64, 8, 8]          36,864
     BatchNorm2d-103             [-1, 64, 8, 8]             128
            ReLU-104             [-1, 64, 8, 8]               0
      BasicBlock-105             [-1, 64, 8, 8]               0
          Conv2d-106             [-1, 64, 8, 8]          36,864
     BatchNorm2d-107             [-1, 64, 8, 8]             128
            ReLU-108             [-1, 64, 8, 8]               0
          Conv2d-109             [-1, 64, 8, 8]          36,864
     BatchNorm2d-110             [-1, 64, 8, 8]             128
            ReLU-111             [-1, 64, 8, 8]               0
      BasicBlock-112             [-1, 64, 8, 8]               0
AdaptiveAvgPool2d-113             [-1, 64, 1, 1]               0
          Linear-114                  [-1, 100]           6,500
    ResNet_Cifar-115                  [-1, 100]               0
================================================================
W/O cls params num: 472,756 (0.00 M)
Total params num: 472,756 (0.00 M)
Trainable params num: 472,756 (0.00 M)
Non-trainable params num: 0
----------------------------------------------------------------
Input size (MB): 0.01
Forward/backward pass size (MB): 8.22
Params size (MB): 1.00
Estimated Total Size (MB): 9.00
W/O cls FLOPs: 0.14G
Number of FLOPs: 0.14G
----------------------------------------------------------------
----------------------------------------------------------------
        Layer (type)               Output Shape         Param #
================================================================
            Conv2d-1           [-1, 16, 32, 32]             432
       BatchNorm2d-2           [-1, 16, 32, 32]              32
              ReLU-3           [-1, 16, 32, 32]               0
            Conv2d-4           [-1, 16, 32, 32]           2,304
       BatchNorm2d-5           [-1, 16, 32, 32]              32
              ReLU-6           [-1, 16, 32, 32]               0
            Conv2d-7           [-1, 16, 32, 32]           2,304
       BatchNorm2d-8           [-1, 16, 32, 32]              32
              ReLU-9           [-1, 16, 32, 32]               0
       BasicBlock-10           [-1, 16, 32, 32]               0
           Conv2d-11           [-1, 16, 32, 32]           2,304
      BatchNorm2d-12           [-1, 16, 32, 32]              32
             ReLU-13           [-1, 16, 32, 32]               0
           Conv2d-14           [-1, 16, 32, 32]           2,304
      BatchNorm2d-15           [-1, 16, 32, 32]              32
             ReLU-16           [-1, 16, 32, 32]               0
       BasicBlock-17           [-1, 16, 32, 32]               0
           Conv2d-18           [-1, 16, 32, 32]           2,304
      BatchNorm2d-19           [-1, 16, 32, 32]              32
             ReLU-20           [-1, 16, 32, 32]               0
           Conv2d-21           [-1, 16, 32, 32]           2,304
      BatchNorm2d-22           [-1, 16, 32, 32]              32
             ReLU-23           [-1, 16, 32, 32]               0
       BasicBlock-24           [-1, 16, 32, 32]               0
           Conv2d-25           [-1, 16, 32, 32]           2,304
      BatchNorm2d-26           [-1, 16, 32, 32]              32
             ReLU-27           [-1, 16, 32, 32]               0
           Conv2d-28           [-1, 16, 32, 32]           2,304
      BatchNorm2d-29           [-1, 16, 32, 32]              32
             ReLU-30           [-1, 16, 32, 32]               0
       BasicBlock-31           [-1, 16, 32, 32]               0
           Conv2d-32           [-1, 16, 32, 32]           2,304
      BatchNorm2d-33           [-1, 16, 32, 32]              32
             ReLU-34           [-1, 16, 32, 32]               0
           Conv2d-35           [-1, 16, 32, 32]           2,304
      BatchNorm2d-36           [-1, 16, 32, 32]              32
             ReLU-37           [-1, 16, 32, 32]               0
       BasicBlock-38           [-1, 16, 32, 32]               0
           Conv2d-39           [-1, 32, 16, 16]           4,608
      BatchNorm2d-40           [-1, 32, 16, 16]              64
             ReLU-41           [-1, 32, 16, 16]               0
           Conv2d-42           [-1, 32, 16, 16]           9,216
      BatchNorm2d-43           [-1, 32, 16, 16]              64
           Conv2d-44           [-1, 32, 16, 16]             512
      BatchNorm2d-45           [-1, 32, 16, 16]              64
             ReLU-46           [-1, 32, 16, 16]               0
       BasicBlock-47           [-1, 32, 16, 16]               0
           Conv2d-48           [-1, 32, 16, 16]           9,216
      BatchNorm2d-49           [-1, 32, 16, 16]              64
             ReLU-50           [-1, 32, 16, 16]               0
           Conv2d-51           [-1, 32, 16, 16]           9,216
      BatchNorm2d-52           [-1, 32, 16, 16]              64
             ReLU-53           [-1, 32, 16, 16]               0
       BasicBlock-54           [-1, 32, 16, 16]               0
           Conv2d-55           [-1, 32, 16, 16]           9,216
      BatchNorm2d-56           [-1, 32, 16, 16]              64
             ReLU-57           [-1, 32, 16, 16]               0
           Conv2d-58           [-1, 32, 16, 16]           9,216
      BatchNorm2d-59           [-1, 32, 16, 16]              64
             ReLU-60           [-1, 32, 16, 16]               0
       BasicBlock-61           [-1, 32, 16, 16]               0
           Conv2d-62           [-1, 32, 16, 16]           9,216
      BatchNorm2d-63           [-1, 32, 16, 16]              64
             ReLU-64           [-1, 32, 16, 16]               0
           Conv2d-65           [-1, 32, 16, 16]           9,216
      BatchNorm2d-66           [-1, 32, 16, 16]              64
             ReLU-67           [-1, 32, 16, 16]               0
       BasicBlock-68           [-1, 32, 16, 16]               0
           Conv2d-69           [-1, 32, 16, 16]           9,216
      BatchNorm2d-70           [-1, 32, 16, 16]              64
             ReLU-71           [-1, 32, 16, 16]               0
           Conv2d-72           [-1, 32, 16, 16]           9,216
      BatchNorm2d-73           [-1, 32, 16, 16]              64
             ReLU-74           [-1, 32, 16, 16]               0
       BasicBlock-75           [-1, 32, 16, 16]               0
           Conv2d-76             [-1, 64, 8, 8]          18,432
      BatchNorm2d-77             [-1, 64, 8, 8]             128
             ReLU-78             [-1, 64, 8, 8]               0
           Conv2d-79             [-1, 64, 8, 8]          36,864
      BatchNorm2d-80             [-1, 64, 8, 8]             128
           Conv2d-81             [-1, 64, 8, 8]           2,048
      BatchNorm2d-82             [-1, 64, 8, 8]             128
             ReLU-83             [-1, 64, 8, 8]               0
       BasicBlock-84             [-1, 64, 8, 8]               0
           Conv2d-85             [-1, 64, 8, 8]          36,864
      BatchNorm2d-86             [-1, 64, 8, 8]             128
             ReLU-87             [-1, 64, 8, 8]               0
           Conv2d-88             [-1, 64, 8, 8]          36,864
      BatchNorm2d-89             [-1, 64, 8, 8]             128
             ReLU-90             [-1, 64, 8, 8]               0
       BasicBlock-91             [-1, 64, 8, 8]               0
           Conv2d-92             [-1, 64, 8, 8]          36,864
      BatchNorm2d-93             [-1, 64, 8, 8]             128
             ReLU-94             [-1, 64, 8, 8]               0
           Conv2d-95             [-1, 64, 8, 8]          36,864
      BatchNorm2d-96             [-1, 64, 8, 8]             128
             ReLU-97             [-1, 64, 8, 8]               0
       BasicBlock-98             [-1, 64, 8, 8]               0
           Conv2d-99             [-1, 64, 8, 8]          36,864
     BatchNorm2d-100             [-1, 64, 8, 8]             128
            ReLU-101             [-1, 64, 8, 8]               0
          Conv2d-102             [-1, 64, 8, 8]          36,864
     BatchNorm2d-103             [-1, 64, 8, 8]             128
            ReLU-104             [-1, 64, 8, 8]               0
      BasicBlock-105             [-1, 64, 8, 8]               0
          Conv2d-106             [-1, 64, 8, 8]          36,864
     BatchNorm2d-107             [-1, 64, 8, 8]             128
            ReLU-108             [-1, 64, 8, 8]               0
          Conv2d-109             [-1, 64, 8, 8]          36,864
     BatchNorm2d-110             [-1, 64, 8, 8]             128
            ReLU-111             [-1, 64, 8, 8]               0
      BasicBlock-112             [-1, 64, 8, 8]               0
AdaptiveAvgPool2d-113             [-1, 64, 1, 1]               0
          Linear-114                  [-1, 100]           6,500
    ResNet_Cifar-115                  [-1, 100]               0
================================================================
W/O cls params num: 472,756 (0.00 M)
Total params num: 472,756 (0.00 M)
Trainable params num: 472,756 (0.00 M)
Non-trainable params num: 0
----------------------------------------------------------------
Input size (MB): 0.01
Forward/backward pass size (MB): 8.22
Params size (MB): 1.00
Estimated Total Size (MB): 9.00
W/O cls FLOPs: 0.14G
…
